testing validation size: 50000

Evaluating AlexNet KAN
FLOPs: 1,611,568,352
Inference time: 0.0074s
----------------------------------------------------------------
        Layer (type)               Output Shape         Param #
================================================================
              SiLU-1            [-1, 6050, 363]               0
         KANLinear-2             [-1, 6050, 32]               0
           ConvKAN-3           [-1, 32, 55, 55]               0
       LayerNorm2D-4           [-1, 32, 55, 55]               0
         MaxPool2d-5           [-1, 32, 27, 27]               0
              SiLU-6            [-1, 1458, 800]               0
         KANLinear-7             [-1, 1458, 96]               0
           ConvKAN-8           [-1, 96, 27, 27]               0
       LayerNorm2D-9           [-1, 96, 27, 27]               0
        MaxPool2d-10           [-1, 96, 13, 13]               0
             SiLU-11             [-1, 338, 864]               0
        KANLinear-12             [-1, 338, 172]               0
          ConvKAN-13          [-1, 172, 13, 13]               0
      LayerNorm2D-14          [-1, 172, 13, 13]               0
             SiLU-15            [-1, 338, 1548]               0
        KANLinear-16             [-1, 338, 128]               0
          ConvKAN-17          [-1, 128, 13, 13]               0
      LayerNorm2D-18          [-1, 128, 13, 13]               0
             SiLU-19            [-1, 338, 1152]               0
        KANLinear-20             [-1, 338, 128]               0
          ConvKAN-21          [-1, 128, 13, 13]               0
      LayerNorm2D-22          [-1, 128, 13, 13]               0
        MaxPool2d-23            [-1, 128, 6, 6]               0
          Flatten-24                 [-1, 4608]               0
          Dropout-25                 [-1, 4608]               0
           Linear-26                 [-1, 4096]      18,878,464
             ReLU-27                 [-1, 4096]               0
          Dropout-28                 [-1, 4096]               0
           Linear-29                 [-1, 4096]      16,781,312
             ReLU-30                 [-1, 4096]               0
           Linear-31                 [-1, 1000]       4,097,000
================================================================
Total params: 39,756,776
Trainable params: 39,756,776
Non-trainable params: 0
----------------------------------------------------------------
Input size (MB): 0.57
Forward/backward pass size (MB): 42.71
Params size (MB): 151.66
Estimated Total Size (MB): 194.95
----------------------------------------------------------------
None
Computing metrics for 50000 validation samples
computing outputs
report saved
****************************************************************************************************

Evaluating PyTorch AlexNet
FLOPs: 714,197,696
Inference time: 0.0018s
----------------------------------------------------------------
        Layer (type)               Output Shape         Param #
================================================================
            Conv2d-1           [-1, 64, 55, 55]          23,296
              ReLU-2           [-1, 64, 55, 55]               0
         MaxPool2d-3           [-1, 64, 27, 27]               0
            Conv2d-4          [-1, 192, 27, 27]         307,392
              ReLU-5          [-1, 192, 27, 27]               0
         MaxPool2d-6          [-1, 192, 13, 13]               0
            Conv2d-7          [-1, 384, 13, 13]         663,936
              ReLU-8          [-1, 384, 13, 13]               0
            Conv2d-9          [-1, 256, 13, 13]         884,992
             ReLU-10          [-1, 256, 13, 13]               0
           Conv2d-11          [-1, 256, 13, 13]         590,080
             ReLU-12          [-1, 256, 13, 13]               0
        MaxPool2d-13            [-1, 256, 6, 6]               0
AdaptiveAvgPool2d-14            [-1, 256, 6, 6]               0
          Dropout-15                 [-1, 9216]               0
           Linear-16                 [-1, 4096]      37,752,832
             ReLU-17                 [-1, 4096]               0
          Dropout-18                 [-1, 4096]               0
           Linear-19                 [-1, 4096]      16,781,312
             ReLU-20                 [-1, 4096]               0
           Linear-21                 [-1, 1000]       4,097,000
================================================================
Total params: 61,100,840
Trainable params: 61,100,840
Non-trainable params: 0
----------------------------------------------------------------
Input size (MB): 0.57
Forward/backward pass size (MB): 8.38
Params size (MB): 233.08
Estimated Total Size (MB): 242.03
----------------------------------------------------------------
None
Computing metrics for 50000 validation samples
…
