flops: 1611568352
----------------------------------------------------------------
        Layer (type)               Output Shape         Param #
================================================================
              SiLU-1            [-1, 7200, 363]               0
         KANLinear-2             [-1, 7200, 32]               0
           ConvKAN-3           [-1, 32, 60, 60]               0
       LayerNorm2D-4           [-1, 32, 60, 60]               0
         MaxPool2d-5           [-1, 32, 29, 29]               0
              SiLU-6            [-1, 1682, 800]               0
         KANLinear-7             [-1, 1682, 96]               0
           ConvKAN-8           [-1, 96, 29, 29]               0
       LayerNorm2D-9           [-1, 96, 29, 29]               0
        MaxPool2d-10           [-1, 96, 14, 14]               0
             SiLU-11             [-1, 392, 864]               0
        KANLinear-12             [-1, 392, 172]               0
          ConvKAN-13          [-1, 172, 14, 14]               0
      LayerNorm2D-14          [-1, 172, 14, 14]               0
             SiLU-15            [-1, 392, 1548]               0
        KANLinear-16             [-1, 392, 128]               0
          ConvKAN-17          [-1, 128, 14, 14]               0
      LayerNorm2D-18          [-1, 128, 14, 14]               0
             SiLU-19            [-1, 392, 1152]               0
        KANLinear-20             [-1, 392, 128]               0
          ConvKAN-21          [-1, 128, 14, 14]               0
      LayerNorm2D-22          [-1, 128, 14, 14]               0
        MaxPool2d-23            [-1, 128, 6, 6]               0
          Flatten-24                 [-1, 4608]               0
          Dropout-25                 [-1, 4608]               0
           Linear-26                 [-1, 4096]      18,878,464
             ReLU-27                 [-1, 4096]               0
          Dropout-28                 [-1, 4096]               0
           Linear-29                 [-1, 4096]      16,781,312
             ReLU-30                 [-1, 4096]               0
           Linear-31                 [-1, 1000]       4,097,000
================================================================
Total params: 39,756,776
Trainable params: 39,756,776
Non-trainable params: 0
----------------------------------------------------------------
Input size (MB): 0.68
Forward/backward pass size (MB): 50.02
Params size (MB): 151.66
Estimated Total Size (MB): 202.36
----------------------------------------------------------------
None
