Printing Results for LeNet
flops: 429128
Time taken for LeNet inference: 0.0007107257843017578s
----------------------------------------------------------------
        Layer (type)               Output Shape         Param #
================================================================
            Conv2d-1            [-1, 6, 28, 28]             156
       BatchNorm2d-2            [-1, 6, 28, 28]              12
              ReLU-3            [-1, 6, 28, 28]               0
         MaxPool2d-4            [-1, 6, 14, 14]               0
            Conv2d-5           [-1, 16, 10, 10]           2,416
       BatchNorm2d-6           [-1, 16, 10, 10]              32
              ReLU-7           [-1, 16, 10, 10]               0
         MaxPool2d-8             [-1, 16, 5, 5]               0
            Linear-9                  [-1, 120]          48,120
             ReLU-10                  [-1, 120]               0
           Linear-11                   [-1, 84]          10,164
             ReLU-12                   [-1, 84]               0
           Linear-13                   [-1, 10]             850
================================================================
Total params: 61,750
Trainable params: 61,750
Non-trainable params: 0
----------------------------------------------------------------
Input size (MB): 0.00
Forward/backward pass size (MB): 0.16
Params size (MB): 0.24
Estimated Total Size (MB): 0.40
----------------------------------------------------------------
None
 length of testing data 10000
printed
printed
computing outputs
report saved
****************************************************************************************************
Printing Results for LeNet KAN
flops: 3298728
Time taken for LeNet KAN inference: 0.0036013126373291016s
----------------------------------------------------------------
        Layer (type)               Output Shape         Param #
================================================================
              SiLU-1            [-1, 1, 32, 32]               0
            Conv2d-2            [-1, 6, 28, 28]             150
    InstanceNorm2d-3            [-1, 1, 32, 32]               0
RadialBasisFunction-4         [-1, 1, 32, 32, 8]               0
            Conv2d-5            [-1, 6, 28, 28]           1,200
FastKANConv2DLayer-6            [-1, 6, 28, 28]               0
       BatchNorm2d-7            [-1, 6, 28, 28]              12
              ReLU-8            [-1, 6, 28, 28]               0
         MaxPool2d-9            [-1, 6, 14, 14]               0
             SiLU-10            [-1, 6, 14, 14]               0
           Conv2d-11           [-1, 16, 10, 10]           2,400
   InstanceNorm2d-12            [-1, 6, 14, 14]               0
RadialBasisFunction-13         [-1, 6, 14, 14, 8]               0
           Conv2d-14           [-1, 16, 10, 10]          19,200
FastKANConv2DLayer-15           [-1, 16, 10, 10]               0
      BatchNorm2d-16           [-1, 16, 10, 10]              32
             ReLU-17           [-1, 16, 10, 10]               0
        MaxPool2d-18             [-1, 16, 5, 5]               0
           Linear-19                  [-1, 120]          48,120
             ReLU-20                  [-1, 120]               0
           Linear-21                   [-1, 84]          10,164
             ReLU-22                   [-1, 84]               0
           Linear-23                   [-1, 10]             850
================================================================
Total params: 82,128
Trainable params: 82,128
Non-trainable params: 0
----------------------------------------------------------------
Input size (MB): 0.00
Forward/backward pass size (MB): 0.42
Params size (MB): 0.31
Estimated Total Size (MB): 0.74
----------------------------------------------------------------
None
 length of testing data 10000
…
